model3.pth (torch, 882027 bytes, 14 tensors)

module.conv1.weight f4 [32, 3, 3, 3]
00000000: 8cc4 323d b682 f03b e95b 13bc 71a3 1dbe
00000010: faa8 413d 8dd2 2dbd aa50 14be da21 e83d
00000020: aa69 17b8 35f8 0cbd db97 523d 5228 1b3e
00000030: 4cbf 2f3e a2cd 2bbe e141 ff3d 6d65 9bbc
00000040: f4f0 3e3e e820 e53d 593d 333d 30aa fdbd
00000050: 513b b1bd 8ea8 033e e5de dabd 594d 25bc
00000060: 5509 a0bb 3ad1 5f3d d7a4 b7bd b1d0 09be
00000070: 0a70 b13d e7d6 dabd 27f6 943c 2fb1 d63d
00000080: 29f8 823d 1dc0 50bd e63b a03d bf1a 99bd
00000090: 3463 f73b ae0b cfbd 959d 0bbe 2e2f 42be
000000a0: d4a7 10bc 029a 843d 05e1 1f3e ad4e f23d
000000b0: aa68 463b 9abc eb3d 51a5 ae3c 119e cd3d
000000c0: d96f abbc f2b4 dc3c a9ab 90bc fb5d 073e
000000d0: d61d 4a3d a6a8 5bbc dd28 34be 7b78 ac3d
000000e0: de4d 963d 7e93 f6bd 78f4 563e f118 353d
000000f0: fade eb3d 213e 3f3e de93 a2bc 8862 98bd
00000100: 7aa2 8d3d 13f5 7cbd 3513 ae3c 1e76 b9bd
00000110: 3b6e cd3d cef7 033d 2b9f bc3c 7c0c 06be
00000120: 1316 31be 54ef 99bc 6671 fbbd ffa8 073e
00000130: ae8f 3c3d 5bd5 97bc 0d15 96bd 9d81 0cbd
00000140: a2d9 3d3e becd 653e b951 373e ef50 183e
00000150: a4b2 013e 4e57 1abe c5d5 a13d 86ef 0abe
00000160: 6f1e 133e 7b29 b7bd c074 d13d c991 36be
00000170: 6321 a03d 443c eebd e3b0 f7bb ef36 36be
00000180: bb7b 30be d45f 813d 851b acbd 1ac0 cb3c
00000190: c01f 1c3d f25f 353d 0e27 5bbd bbda 40bd
000001a0: 2b21 033e 5911 75bd 0fc4 99bd 17a8 5bbe
000001b0: 8eb4 583e 8306 de3d 8978 f53d a6de 3e3e
000001c0: b646 403e 5223 e9bd 5277 2abe 76ae 803d
000001d0: 235c e23d 4d61 153d 5858 c6bd 5550 4bbe
000001e0: 5f7e 313e b4da 20be c9d6 edbd 72bc 44bd
000001f0: 7b4e 903d 7208 1dbe 243b d9bd 1575 a9bd
00000200: a457 8c3d 4bcf d5bd 75a7 54ba d1a9 52ba
00000210: 767e 483e f88f 1c3e 079f f2bc ac60 333c
00000220: d33f 1dbe 4b2a 99bb 0adc f3bd 549e 48be
00000230: dcfc b33d de7d a93d c79d c7bd d2ab e93b
00000240: aa00 513d d3bf d43d e03b d73d f390 81bd
00000250: b61c 493d 2857 5e3d e734 c83d 0f64 65bd
00000260: 1b40 1e3e d6d8 cfbd e11e 2d3d a940 103e
00000270: 9232 3d3c 60d1 43bd a0bd 133e 833b aa3c
00000280: cf39 abb9 9b74 d9bd 63d8 d13d 56d3 263e
00000290: 5520 213e c67e 103e b753 223e e301 ccbd
000002a0: 208c d33d 6ee3 2fbc 0765 43bd 53c3 193d
000002b0: 07b7 cabc ffd9 2dbe 856f 4a3e cd89 06be
000002c0: d196 06be b28b 033e 17e2 97bd 4170 633d
000002d0: 6f5b 4f3b adbc c5bd a0d0 71bd 272a f13d
000002e0: ffee bdbd 2187 ce3d 91c4 8b3d 0a45 13be
000002f0: bc44 d93d 3229 623d b259 53bd fbfd d03d
00000300: fa6e 0e3d dc31 bc3c 9ee2 69bc 5ce6 9e3d
00000310: a83b 51be 538e d53d 2705 8bbc 1f2a e1bd
00000320: d60a 2ebd d7aa ecbd 5952 8c3d 7f8c d9bc
00000330: 9fc4 56bd 7db3 b23d ffa8 19bd 45bf 13be
00000340: a0f2 ca3d fef0 1c3d 5365 a13c 60cc 0fbe
00000350: b67a 4fbe 705f d73d 5547 e7bd 4b87 a23d
00000360: b3bd 32be 1c77 42be 0060 bc3c d1e4 05be
00000370: e786 b1bd b033 0cbe 1d33 fd3c 23e2 75bd
00000380: c31c 1a3e 9dc4 6c3d af88 18be 2781 31be
00000390: f7e0 8a3d 4a1d 003e 61d0 1b3e c069 2cbe
000003a0: 461b 12be d517 46bd 3ab0 d3bd 1124 41be
000003b0: 60fb b83d a975 18be 6f90 203e 5064 d4bc
000003c0: 8135 3a3e cd2d 0abe f0aa 233e 73e5 893d
000003d0: 6718 4abc 1a75 fc3d c388 023d 8149 38be
000003e0: baea 72bd 1fde 91bd 9115 35bd 490b 0dbe
000003f0: 7aba 013d dfae a6bc 8ff1 0d3e fd5a 03bc
0.043644473 0.0073398007 -0.008994081 -0.15394379 0.04728029 -0.042437125 -0.14483896 0.11334582
-3.6099613e-05 -0.034416396 0.051414352 0.151521 0.17162818 -0.16777661 0.12463737 -0.018969262
0.18646604 0.11187917 0.043759678 -0.12385976 -0.08653892 0.12857267 -0.10687045 -0.010089242
-0.004883925 0.054642893 -0.089669876 -0.13458516 0.08663948 -0.106855206 0.01818378 0.10483014
0.06394989 -0.050964464 0.07823925 -0.074758045 0.0075496677 -0.101096496 -0.13634332 -0.1896331
-0.008829076 0.06474687 0.15613182 0.118314125 0.0030274787 0.11510582 0.021319063 0.100399144
-0.020927357 0.02694175 -0.017659979 0.13219444 0.04934486 -0.013406908 -0.17593713 0.08421417
0.07339071 -0.12039851 0.20991695 0.04421324 0.11517139 0.18676044 -0.0198459 -0.07440668
0.069157556 -0.06175716 0.021249393 -0.09055732 0.100307904 0.032218747 0.023025116 -0.130907
-0.17293577 -0.018790878 -0.122774884 0.1324806 0.04603546 -0.018534353 -0.07328234 -0.034303296
0.18540052 0.22441766 0.17902268 0.14874624 0.12665802 -0.15072367 0.079021014 -0.13567933
0.14367078 -0.08943459 0.102273464 -0.1782905 0.07818868 -0.116325885 -0.0075589283 -0.17794393
-0.172347 0.06317106 -0.084036864 0.024871875 0.038116217 0.044280954 -0.053504042 -0.047083598
0.12805621 -0.059830997 -0.07508098 -0.2145084 0.21162626 0.10841086 0.11985881 0.18639621
0.18776974 -0.1138369 -0.1664708 0.06283276 0.1105273 0.036469746 -0.09684819 -0.19854863
0.17333363 -0.15708429 -0.11613233 -0.048031278 0.07046219 -0.15335253 -0.10606983 -0.08274285
0.068526536 -0.104399286 -0.0008112111 -0.0008036169 0.19579491 0.15289295 -0.029616846 0.010948341
-0.15356378 -0.004674231 -0.119072035 -0.19591647 0.087884635 0.082759604 -0.097468905 0.0071310783
0.051026024 0.1038815 0.10509467 -0.06326475 0.049099647 0.054282337 0.09775715 -0.056003626
0.15454142 -0.1014878 0.042265777 0.14087166 0.011547701 -0.047807097 0.14427805 0.02078033
-0.00032658732 -0.10617944 0.102463506 0.16291556 0.1573499 0.1411086 0.15852247 -0.09961297
0.10329461 -0.010735376 -0.04770377 0.03753979 -0.024745477 -0.1697769 0.19769104 -0.13138504
-0.1314347 0.12846258 -0.0741617 0.055526976 0.0031640192 -0.09655128 -0.05903685 0.11775618
-0.092741005 0.100843675 0.068246014 -0.14381805 0.10608813 0.05521507 -0.051599212 0.10204693
0.034773804 0.022972994 -0.014275221 0.07758781 -0.20432913 0.10427537 -0.01697023 -0.10994362
-0.042490803 -0.115560226 0.06851644 -0.026556252 -0.052433606 0.08725641 -0.037514683 -0.14428432
0.09909558 0.038315766 0.019701635 -0.14042807 -0.20261654 0.1051625 -0.112929024 0.07935961
-0.17455177 -0.18990749 0.022994995 -0.13075568 -0.08668309 -0.13691592 0.030908162 -0.060030114
0.15050034 0.057804693 -0.1489589 -0.17334424 0.0678119 0.12511173 0.15216209 -0.16837215
-0.14268216 -0.04836257 -0.10336347 -0.18861414 0.09032321 -0.14888634 0.15680097 -0.025926739
0.18184473 -0.13494034 0.15983176 0.06733217 -0.01233492 0.12327023 0.031868707 -0.1799679
-0.059305884 -0.07122444 -0.04421002 -0.13773836 0.03167198 -0.020347057 0.13861679 -0.008017299

module.conv1.bias f4 [32]
00000000: c2c4 edbd 70d5 e2bd 98b2 80bd aab9 933d
00000010: 6583 13be c70e 9d3d 6ea2 4cbe eef0 433d
00000020: 476a 09be 25d5 07be a02c 25be cc2a 21be
00000030: e4e0 e93c 84e9 233e 263d c73d a3ee 7c3c
00000040: 0b20 27bd 78ed a3bd aa72 35be 44a2 75bd
00000050: 90c8 e13d c0ac 21be 9831 3b3e 1c06 44be
00000060: 5dc8 083d c153 243d c865 23bd 0be8 023d
00000070: c9fc 4c3d a64f 283e 8492 d8bc fe04 adbb
-0.11609794 -0.11075866 -0.06284064 0.07213147 -0.14405592 0.07668834 -0.19983837 0.04783719
-0.13419448 -0.13264902 -0.16130304 -0.15738982 0.028549619 0.16007048 0.0972846 0.015437755
-0.040802043 -0.08004278 -0.17719522 -0.0599692 0.110245824 -0.15788555 0.18280637 -0.19142956
0.033394206 0.040118936 -0.039891988 0.031959575 0.050045762 0.16436633 -0.026437052 -0.005280136

module.conv2.weight f4 [32, 32, 3, 3]
00000000: 9e46 4b3c 33ae cfbd 395b 79bd 3ee3 a8bd
00000010: 3877 81bd a6a1 b3bd 4c1b 62bd fc80 58bd
00000020: 41f6 cebb 75b0 173d 4ac1 8dbd 3e3e 32bd
00000030: b2b7 75bd 54ab 9fbc 8b99 9cbd 3c7c d33c
00000040: a991 3b3d 4d65 22bd 865c a3bb d72e 5d3d
00000050: f0b7 533d 613c 143d 967f 463d b7e4 943d
00000060: 8d77 e1bb 5d0a 4d3d 9197 5a3d ffeb 333e
00000070: 7d81 0b3d 3c35 af3d 432f d23d 0d5d 713d
00000080: 1ac8 ed3d 710b 383d 4210 e93d a46e 1a3e
00000090: 692c 703c afea 093d b727 323d 7faa 843d
000000a0: 42ab 03bd 129c 9d3d 6323 0a3c 4409 3a3d
000000b0: d1e1 8a39 821e d63c a006 09bd fe80 b5bd
000000c0: 1654 3fbd 30dc 1bbd 78c1 2ebc 5dcf 78bd
000000d0: d10c b4bc 0997 adbd 2b01 b13d d3af 973d
000000e0: c9c2 9abb 06f9 7b3d 2fa7 cb3d f412 9c3c
000000f0: 61e0 963d 1dc1 083d f384 673d 5f39 ba3c
00000100: bbd7 1b3d ca9f 2ebd 6c8d da3c d383 733d
00000110: 4e26 78bd 7cbd dd3c a566 32bd 9fb9 e23b
00000120: 06a7 a73c 1215 6f3c d89f c03c 4c29 fd3c
00000130: 9914 a93a c927 24bd 0edc 4cbd 62ac 063d
00000140: 69b4 48bc 5fad d7bc 2764 3fbd 6882 fc3c
00000150: eec9 4c3c 0cbc f33c 53a7 4cbd 7c2d 2f3d
00000160: d93a 2b3d 21df 2dbd 1243 d03c b380 2abc
00000170: 36a5 a73c 70c1 74bb 2042 60bd 2323 4abd
00000180: f270 843b 13f5 4fbd 0ae2 50bc ecf6 17bc
00000190: e2a8 51bd e7e6 e0bc c095 94bc 7fda c2bb
000001a0: 0d68 a93c 1f26 483d 8878 98ba fe4e 2b3d
000001b0: 0632 a0bc 509c 3dbb 16b9 c9bc 6f30 683c
000001c0: 6cbb 16bd 1358 70bd 8475 3f3d 4132 bebc
000001d0: d88f 94bd 5966 efbc 88f1 5f3c c93a b9bd
000001e0: 4a00 d4bc a7ad 533c eb94 85bd cf52 7fbd
000001f0: 6f52 a2bb beb1 c4bd ef45 d23b f5e5 0fbd
00000200: 5532 c2bd 2edd 23bd c20c 1b3d 6a2c a9bc
00000210: 585f 6a3c 2d0f 1ebc e29f 3cbd 046c 2c3d
00000220: 431a 3b3c d316 fc3d 1093 983c b998 753d
00000230: 2430 2a3d 993e c3bc fc0d 373d 0ec5 41bc
00000240: 8953 063d a911 353d 8af1 3439 c218 f43d
00000250: a7e0 053d 5ec2 873d ff1e c43c 51e1 073d
00000260: f416 0ebc 6bec 61bc 77e7 943c 99bd f43d
00000270: c08f 21bc afd4 073d 504a 393d 0924 ae3d
00000280: 575a 7a3c 848c d33c 241c 5a3d 8970 563d
00000290: 6d16 2abb 060e 19bb 0cfe 763d d45e 2a3d
000002a0: ea4a 63bc 5b6a e3bc af5d 393d 3504 1d3a
000002b0: fb82 583d 6ec0 a43d 2a0b 1bbd b6be a8bc
000002c0: 678a 13bd dd73 103d 96b8 e43b a76b 3d3c
000002d0: 979d 143d 2cce db3c 2dcd 0cbe 23dd 883c
000002e0: 415f c5bc 5140 9dbd 65d9 c93b 4f85 3b3d
000002f0: b7d4 64bd 7ac1 ae3d 7418 f13d 2442 983d
00000300: 21c2 8abc 6d52 3d3d bd35 873d 324c ce3a
00000310: b572 71bd 399b 9fbd 4d7c fbbb 35fe b33d
00000320: f82f 343c 0a2a 943d 2981 093d 5c9c e4b9
00000330: 62a3 463d 939a 9e3d ac54 bebb 5be9 99bc
00000340: 06ed 37bc a191 083d 5e26 b6bc 1313 ca3c
00000350: 4f3b 983d 9909 143d 3b76 68bc f078 083d
00000360: 7936 80bd 2c1f 37bd 9ed7 483d 6d8b 90bc
00000370: 1f29 15bd 95e3 11bd 4a5e 003d ed0e 883d
00000380: 8a37 cdbc d7b8 9d3d e1b7 32bd a560 de3b
00000390: 9ae7 6dbd b06a 083c dbdd 953c e163 e33b
000003a0: cbc2 68bd 6eda 003d 4c74 3c3d 9527 89bc
000003b0: 366a f1ba ab54 e03a 8718 20bd 4d72 e2bc
000003c0: cb42 73bd 0522 053d ef2d 53bd 1b06 793d
000003d0: 2c70 af3d fe48 853c 2fd9 b03d b012 cb3d
000003e0: fa7b 303c 853d c43d bb80 d73d 48d1 bf3d
000003f0: 9d78 eb3c bea1 493d 8b57 973c cb8a ec3c
0.012406973 -0.10140648 -0.060878012 -0.08246468 -0.06321567 -0.08771066 -0.055201814 -0.052857384
-0.006315977 0.037033517 -0.069216326 -0.04351639 -0.05998964 -0.019490875 -0.076464735 0.025816076
0.04579321 -0.03964739 -0.004985395 0.053999748 0.05168909 0.036190394 0.04846152 0.072701864
-0.0068807066 0.05005871 0.0533672 0.17570494 0.034059037 0.085550755 0.10262921 0.05892663
0.11610432 0.044932786 0.11380054 0.15081269 0.014659026 0.033671077 0.043494906 0.06477832
-0.032145746 0.07695784 0.008431288 0.045418993 0.00026489657 0.026137594 -0.033453584 -0.08862494
-0.04671105 -0.038051784 -0.010666244 -0.060744632 -0.021978768 -0.08476073 0.08642801 0.07406583
-0.004722927 0.061516784 0.09943997 0.019052006 0.07367016 0.033387292 0.056523275 0.022732435
0.038047533 -0.042632855 0.026678763 0.05945189 -0.060583405 0.027067892 -0.04355492 0.0069191004
0.020465385 0.014592426 0.02351372 0.030903481 0.0012899815 -0.040077005 -0.050014548 0.03287924
-0.012250044 -0.026327787 -0.046726372 0.030823901 0.012499316 0.029752754 -0.04996426 0.042767987
0.04180417 -0.04244912 0.025422607 -0.010406661 0.02046452 -0.0037346743 -0.05475056 -0.049349915
0.0040417844 -0.05077083 -0.012749204 -0.009275179 -0.05118645 -0.027453853 -0.018137813 -0.005946457
0.020679498 0.04886448 -0.0011632601 0.04182338 -0.019555103 -0.002893228 -0.024624389 0.014171704
-0.036799833 -0.058677744 0.04674293 -0.023217322 -0.072539985 -0.029223608 0.013668425 -0.090444155
-0.025879044 0.01291982 -0.065225445 -0.06233483 -0.0049536745 -0.09604214 0.006417028 -0.035131413
-0.09482256 -0.040005855 0.037853964 -0.020651061 0.014304958 -0.009647173 -0.046050914 0.0420952
0.0114198355 0.12309041 0.018624812 0.0599601 0.041549817 -0.02383356 0.04469107 -0.011826767
0.03279451 0.044206295 0.00017256118 0.11918785 0.03268495 0.066288695 0.023940561 0.033173863
-0.008672465 -0.013789277 0.018176777 0.119502254 -0.009860933 0.033161815 0.045236886 0.08502967
0.015280328 0.025823839 0.053249493 0.052353416 -0.0025953308 -0.0023354306 0.06030087 0.04159434
-0.013872841 -0.027760675 0.04525536 0.00059897016 0.052859288 0.080445156 -0.037852444 -0.02059875
-0.036020663 0.035266746 0.006980012 0.011561311 0.036283102 0.026831709 -0.13750143 0.016707009
-0.024093272 -0.07678283 0.0061599487 0.04578143 -0.055866923 0.085329965 0.11772242 0.0743449
-0.016938271 0.046221185 0.06602047 0.0015739261 -0.058947284 -0.07793278 -0.00767473 0.087887205
0.010997765 0.07234581 0.033570442 -0.00043604046 0.048495658 0.077443264 -0.0058084335 -0.01878803
-0.011225944 0.033342008 -0.022235092 0.024667298 0.07433187 0.036141966 -0.014188345 0.03331846
-0.0626039 -0.044707462 0.049033754 -0.017644608 -0.03641617 -0.03561743 0.03133992 0.06643472
-0.025050897 0.07701271 -0.04363239 0.0067864233 -0.0580822 0.0083262175 0.018294265 0.0069393967
-0.056826394 0.03145831 0.046009347 -0.016742507 -0.0018418494 0.0017115077 -0.03908589 -0.027642393
-0.05938987 0.032503147 -0.051557478 0.06079684 0.08566317 0.016270157 0.086351745 0.09915674
0.010771746 0.095820464 0.105226 0.09366089 0.028744036 0.049226515 0.01847436 0.028874775

module.conv2.bias f4 [32]
00000000: cc19 263d ade1 71bd 0f8f dfbc 94c1 81bd
00000010: 2365 2dbc 020c 2f3d f338 edbc 79bc c4bc
00000020: c06f 53bd 101d 84bd d700 60bd 0098 60bc
00000030: a172 c7bc a6a5 88bd 9654 e6bc 5f8a 01bd
00000040: 9a2d 383b 7bd7 98bd 6154 dfbb 18e1 4ebb
00000050: 1ec8 7fbc 1796 9ebd 13c4 f4bb f5ec e4bc
00000060: 351f 53bc 7577 40bc bb85 aebc f307 ffbb
00000070: 14c9 c4bd f1d2 14bb cb74 8dbd a09d 5ebd
0.040551946 -0.05905311 -0.027289895 -0.0633575 -0.010583195 0.04273606 -0.02895782 -0.024015652
-0.051620245 -0.06450856 -0.0546883 -0.013708115 -0.024346652 -0.0667222 -0.028116506 -0.0316261
0.0028103353 -0.07462975 -0.0068154787 -0.0031567272 -0.0156116765 -0.07743471 -0.007469663 -0.027945021
-0.012885858 -0.011747231 -0.021304002 -0.00778293 -0.09608665 -0.0022708739 -0.06907042 -0.05434954

module.conv3.weight f4 [32, 32, 3, 3]
00000000: aeb3 d63c 67d6 23bc 77c5 113d 0f0e 213c
00000010: 0c18 11bd fd31 b2bc 5bfa 993c 0a08 41bd
00000020: adde 683d 67c4 813d b0e9 523c 5817 f63c
00000030: 4459 aa3d df88 cd3d c76e 0dbd 17f6 553d
00000040: c12d 0a3d eb5d cfbc cc8d 973d 3719 423d
00000050: 6701 663d 1714 003d 9b5e 0abb 60c2 643b
00000060: 0453 f93c d131 50bb fcfc 4e3c 4f17 be3b
00000070: e78b 5d3c d511 273d 0d32 b9bc d9bd 8cbc
00000080: 4b28 503d 8ad6 7f3d cf53 553c a28d 7e3d
00000090: 5080 933c a0b6 1c3d 934c 6e3d 6ad9 dd3b
000000a0: f6c3 4e3d 7a30 203d da17 3dbd c461 7d3c
000000b0: 2408 22bd 8240 143b 333d 4b3c 0a2d 4dbd
000000c0: b477 31bd 53a8 c5bc 6df9 633d 3275 d2bc
000000d0: eee3 80bb 748d b1bb b6e6 103d 1a22 133c
000000e0: a37b 873d 847d 753d 35a2 7e3d cf16 30bc
000000f0: bcc8 60bd 9157 2cbd a235 613d cc8c 033d
00000100: 5748 cabb 68de 2bbd 1ffb 8b3c 033a 933d
00000110: 87e9 293d 4df0 8fbd af4a 373d 63f8 42bd
00000120: 6662 7a3d c0be 68bc 8629 463d 42b0 20bd
00000130: 1b55 61bc 35eb 8c3c 6265 f0bc e205 c8bc
00000140: 1610 ecbc ad3b 483d 7dd0 673d fbf0 b83c
00000150: 0ab9 f5bc e321 513d 5f56 473d b3cb 053d
00000160: 71a4 8aba f49b 773d 3ab2 bd3d 11ae ea3d
00000170: 01ee 13bd 5ef0 0d3d ecd1 ea3c 3b60 903d
00000180: 636a bbbc e381 3abb dbd0 873c aef6 163d
00000190: a032 9c39 a3ba 603d 0e57 a9bb 21dc f23b
000001a0: 7113 80bd d2a6 b5bc e1a2 1abd bce4 78bd
000001b0: edee 23bc 330c 55bd 60f4 6dbc 0b0a 253d
000001c0: 4590 26bd 12d4 243d 23d0 23bd 5758 853c
000001d0: 3258 133d a228 3d3c 398a 543d a7ba 713d
000001e0: 7b64 44bd e381 133b 47f3 94bc 915b 04bd
000001f0: 6951 debc d914 113b 73c4 253d 915c 8f39
00000200: e311 443d cbfb 83bd 247b f63c 27de 1cbd
00000210: 6877 f0bc 1c5c 7dbc 11ba bebc f02b b53c
00000220: c6c9 13bd 15cc 343d 7b10 023d 381a 073d
00000230: d0a7 1b3d 053b 523c 6650 763d a82f 413c
00000240: 9e6b ffbc 94ee f93c ff50 46bd 955c b4bc
00000250: 2d02 9dbc 6adf 1d3d 23aa 33bd 367e 093d
00000260: c19a 0f3d 1a8d ccbc 8c90 30bd 279e 443d
00000270: 5fd8 38bd 5ecf 173d f9a5 99ba 9e70 6ebd
00000280: a7fa 273c faea 553d 4f0f 783d b6b5 9c3d
00000290: 4161 5a3d 3aa3 a73b e934 b03d c608 1bbd
000002a0: 3d01 30bd 0246 45bd ab25 603d 536a b63c
000002b0: eef3 213d 4da7 6e3d 3cf2 563d f346 723a
000002c0: 0e3a 153d 6f34 9d3c 0388 a4bd 8c16 943c
000002d0: 4aaa 49bb d7fc a6bc 7951 003c e354 61bc
000002e0: df33 ab3c af51 183a 7316 723c cc7c 75bc
000002f0: 6c8a 7fb9 80ea a33d fca5 843d d108 a53d
00000300: b5d9 ba3b 3d4e 18bd 7033 76bc 41c1 85bd
00000310: a8c0 5fbb 6079 0ebd 3a21 38bc 43d7 45bc
00000320: 3c7f 1a3d 726d 76bd f94d 823c dc37 373d
00000330: 6a8f 0cbd e285 8dbd f552 d03b e506 3f3d
00000340: b76d 0e3b dbff 0b3d 4f03 17bd fab4 dfbc
00000350: 9f16 553d 8468 083d 1a12 413d a642 183d
00000360: 6a8c 453d b0fb c83c 2620 d4bc 8201 01bd
00000370: 13cf 5ebd 8c4e 40bd c9d8 1d3d 91d3 6a3d
00000380: d95e 443d 9710 adbc c915 783d 995a 1e3d
00000390: b6f9 6abd 5072 afbc 587d 3c3d 8ec6 0f3d
000003a0: ee89 3abd 048e cebc a6c5 39bc 27d5 d23a
000003b0: 990e 443d 798e 90bc 09dc 80ba e1f8 10bd
000003c0: 5c2c e63c 1e2d 2c3d 489d 4c3c 5a02 dd3c
000003d0: efe8 a43c e081 a5bc 4e5d 86bb ccfc 07bd
000003e0: 1089 893c 669b 52bd 4238 413d fcc9 213c
000003f0: 700a cdba 5bfa 5d3d 9756 073d db52 2c3d
0.026208725 -0.009999848 0.035588708 0.009830012 -0.035423324 -0.021752352 0.018796137 -0.047126807
0.056852985 0.06336289 0.012873098 0.030040428 0.08317807 0.10035872 -0.034529474 0.052236643
0.03373504 -0.025313338 0.074000925 0.047387328 0.05615368 0.03126916 -0.0021113518 0.0034905896
0.030435093 -0.0031767974 0.012633558 0.0058011184 0.013522125 0.04078849 -0.022606874 -0.01718037
0.050819676 0.06246046 0.01302047 0.06214679 0.01800552 0.038260102 0.058178496 0.0067703025
0.05047985 0.03910873 -0.046165325 0.015465204 -0.039558545 0.0022621457 0.012404728 -0.05009178
-0.04332705 -0.024128115 0.055657793 -0.025690649 -0.0039334213 -0.005418474 0.035376273 0.008980298
0.06615379 0.059934154 0.06216641 -0.0107476255 -0.054878935 -0.042075697 0.05498279 0.032116696
-0.0061731744 -0.04196015 0.017087517 0.07188799 0.041482475 -0.070282556 0.04474896 -0.04760016
0.061128996 -0.014205635 0.048379444 -0.039230593 -0.013753201 0.017202 -0.029345218 -0.024416868
-0.028816264 0.048885036 0.056595314 0.022575846 -0.02999546 0.051057708 0.048666354 0.032664966
-0.0010577572 0.060451463 0.0926251 0.11458982 -0.03611565 0.03465306 0.028664552 0.070496045
-0.022877878 -0.0028458766 0.016579082 0.036856346 0.00029792357 0.05486549 -0.0051678484 0.0074114953
-0.06253708 -0.022174273 -0.03775299 -0.060765013 -0.010005695 -0.052013587 -0.014523596 0.04029278
-0.04066493 0.04024131 -0.039993417 0.016277475 0.03597278 0.011545332 0.051889632 0.059015896
-0.04794739 0.0022507838 -0.01818241 -0.032313887 -0.027138429 0.002213767 0.04047055 0.00027344053
0.04786862 -0.0644451 0.030088015 -0.0382978 -0.029353812 -0.015463855 -0.023282083 0.022115678
-0.036081098 0.04413994 0.031754 0.03298399 0.038001835 0.012831454 0.060135268 0.011791147
-0.031179246 0.03050927 -0.048417088 -0.022016803 -0.019166077 0.038543142 -0.043863427 0.03356763
0.035059694 -0.024969626 -0.0431066 0.04800239 -0.045128223 0.037062995 -0.0011722437 -0.05821287
0.010252631 0.052226044 0.060561474 0.07651846 0.053315405 0.0051158937 0.08603842 -0.037850164
-0.04296993 -0.048162468 0.054723423 0.022267496 0.03953927 0.05826502 0.052477106 0.00092421396
0.03643232 0.019190041 -0.08033755 0.018077157 -0.0030771666 -0.020384235 0.007831925 -0.013753149
0.020898758 0.00058105116 0.01477586 -0.014983367 -0.00024370261 0.08003712 0.064769715 0.08058322
0.005702222 -0.03718399 -0.015026912 -0.06531001 -0.0034141932 -0.03478372 -0.011238391 -0.012075248
0.037718996 -0.06016297 0.01590632 0.044731006 -0.034316458 -0.06910302 0.0063575455 0.046637435
0.0021732876 0.03417955 -0.03686839 -0.027307976 0.052023526 0.0333028 0.047136404 0.037172936
0.048229612 0.024534076 -0.025894236 -0.03149558 -0.0543967 -0.046949908 0.03853682 0.05733067
0.047942016 -0.021126075 0.06056765 0.03866062 -0.05736705 -0.021416813 0.046017975 0.035101466
-0.045541696 -0.025214203 -0.011338627 0.0016085253 0.047865484 -0.017646061 -0.0009831201 -0.0353936
0.028097324 0.042035215 0.012488671 0.02697866 0.020130603 -0.02020353 -0.0041004783 -0.03320007
0.01678899 -0.05141773 0.047172792 0.009874817 -0.0015643369 0.054193836 0.033041563 0.042071205

module.conv3.bias f4 [32]
00000000: e2a1 95bd 6da4 76bc ef47 4bbd 57fa abbc
00000010: 4ceb 1ebd aa97 a2bd b37e 1dbd 7380 87bd
00000020: 3a5f abbb 5aae 633d e13f c53d 499c d4bc
00000030: b921 34bd e010 45bc 408c 823c 00b5 43bd
00000040: 145e 74bc 02d8 c4bc 687b 09bd 42ad 7a3d
00000050: fb11 c83d f266 56bd c8e8 48bc 18c7 c13b
00000060: 24ef cfbc d493 14bc 69c6 88bd 3c09 08bd
00000070: 1308 e6bc e0f0 39bd 7f28 bebd 207a 82bd
-0.07306267 -0.015053851 -0.049629148 -0.020993395 -0.038798615 -0.07939084 -0.038450908 -0.066162966
-0.0052298578 0.055586196 0.096313246 -0.025953429 -0.043977473 -0.012027949 0.015936017 -0.047780037
-0.014915008 -0.024028782 -0.033564955 0.061200388 0.097690545 -0.05234427 -0.012262531 0.0059136264
-0.025382586 -0.009068448 -0.06678469 -0.03321193 -0.028080022 -0.045395732 -0.09285068 -0.0637095

module.conv4.weight f4 [32, 32, 3, 3]
00000000: 5f04 dabc d80d 79bd 2d5a d6bd bc0f c93b
00000010: 1622 273d 7a12 5ebd 8b5a 563d b29f 96bc
00000020: 86e4 6dbd 5ed9 af3c a074 54bd 0963 6d3c
00000030: d47b 1fbc cab5 aabb e276 56bd 9641 fdbc
00000040: b740 623c eba2 11bd c523 863d f5f4 edbc
00000050: 96f3 babc ee5f 853c bfd2 7e3d 94c2 06bd
00000060: 46cb fb3d b756 c23d 9901 52bd ee4e 993c
00000070: 3ef5 7bbd c725 c6bd 71ca 01bb 813e 67bb
00000080: 88b0 e8bd 5a64 83ba ada6 9c3d a914 51bd
00000090: 8144 85bc 2174 0dbe 7dd9 a0bd 170b 153c
000000a0: 9771 643d 1139 55bd 053b 923d 0a54 47bc
000000b0: 349a 9ebb 0c05 0f3d 012a 09bd 9d0a b7bd
000000c0: 10d0 7d3b 5769 53bd 7e1c a1bd 4b54 b93c
000000d0: a6ab 783d afb7 b33b abc0 bdbc ed62 fd3c
000000e0: 1635 35bc 385c ff3c bbf0 113d ab0d 6dbd
000000f0: 691a 9db9 4d37 1a3d 3375 633c 361e 423c
00000100: eb32 ea3c 2c43 e5bd 7d36 4e3c 4589 05bd
00000110: 0c12 87bc 2ec0 c03d 3a1f 3a3d bc83 79bd
00000120: 19c6 6a3c e8a2 23bc 3f63 5abd e3b4 8a3d
00000130: 510a 8a3d da6d 0dbd 45fe c13c cab9 3b3d
00000140: 1d4d 0e3d 89b7 cbbb 614a 51bd 3923 193d
00000150: 2aec f1bc 7a72 87bc 8438 333d 1a4b 083b
00000160: 1c8b 4e3c 7477 a13d dfe4 013d 901a d93c
00000170: 5524 af3d e9b0 bc3b 11d2 04bd b90e 813d
00000180: 9606 7fbc df2e 86bc 3e98 2dbd 338a 8abc
00000190: c6d5 79bd 1f97 c1bd 20d7 a63d 1ce8 12bc
000001a0: 1e94 7a3c 4b10 8f3c c6e7 353d 3c31 8e3c
000001b0: 110c 73bd 2de9 a9bd 731f 3abe 7580 1d3d
000001c0: e0ac cfbd 52fc f1bd 5775 a23d 285a 063e
000001d0: 0b46 373d 3afc 0abc 3317 e1bc d7b9 a4bd
000001e0: 8d6b 903d 2df0 e23c d6e1 7abc c207 3b3d
000001f0: 58b9 193d 22f9 52bd 867a adbc f5ea 423d
00000200: d79e 60bb 15b1 3c3d 35b1 83bc 3e9f 4b3c
00000210: bc6b c2bb 8607 6dbd 2d75 143b 7942 08bd
00000220: 1fa2 9bbc 5eb3 4f3d ac32 e23b 7841 16bd
00000230: 3e17 3c3d 6528 01bd fa76 b43c 517e 1d3d
00000240: 6529 c3bc d9d9 2abd 6cad bbbc 8f6a 4f3d
00000250: d916 803d b254 62bd f1e4 d33d b8b6 b23d
00000260: 1ee6 c83c c6b8 3f3c dabf a8bd 818f d9bd
00000270: 997e 5fbc 102e 473d e6c1 5ebd 4efe 2c3d
00000280: 01e4 aa3d 8c33 08bd 766d e33c b787 923c
00000290: 5346 d7bd 909e 023d 0be9 143d 3733 003d
000002a0: e72c 3ebc f6e6 943d 5606 e7bc 8d00 bcb9
000002b0: d354 81bd a8ed b9bd 5a4f 213d a222 93bd
000002c0: 25b7 7dbd b3e8 313b c35c 843d 1e6b 823c
000002d0: 65ca 9dbc bce5 933b 0954 003d cd4f c0bc
000002e0: 8bab cbbc ad1a bbbc 24e6 15bd 61da c5bc
000002f0: 4167 83bc ebc7 093c e74a 5ebc 1a32 1b3d
00000300: 42e9 333d 5729 b13c a9b2 c4bc f90a c13c
00000310: 4c87 2a3d 0ae4 67bb ba47 133d d8b4 44bc
00000320: 9c0f 9bbd 34e5 163d 5026 6a3b b3a8 2bbc
00000330: 727e fb3b 79cd 9e3d bf9b 403d a057 0abc
00000340: f40d 60bd f3f0 cdbd b9fa f63c 87b9 493d
00000350: c775 9cbc 34f2 713d 4b14 a43d d99d 863b
00000360: 9c04 d63c db0d 9eba fef4 e1bc 3108 603d
00000370: d67c 17b8 015e 8ebc 4eb8 213d 05de cbbc
00000380: dbf1 f1ba 8685 7c3d efcc 4dbc 74b6 01be
00000390: 0c7b 8cbc 817e 8abd cb53 cebd aa43 b43d
000003a0: b12d 12bc 34e6 163c b563 03bd 07c8 d0bc
000003b0: f02b 2fbd a1fc 6b3b 34d6 ca3d 4be3 b73c
000003c0: 6ff1 b93d a7d8 bd3c e2e7 013c d69b 43bd
000003d0: 351c a2bd b93d 66bd 5866 afbb b861 813c
000003e0: 9c5f 9cbd 399e d5bc a3df b33d 9522 70bd
000003f0: 8590 76bd 8859 9bbb c2f5 8ebc 72b4 ee3b
-0.026613412 -0.060804218 -0.104664184 0.006135909 0.04080399 -0.05421684 0.052332442 -0.018386696
-0.058079265 0.021465953 -0.051869035 0.014488944 -0.009734113 -0.005209659 -0.05235947 -0.030915063
0.0138093745 -0.03555576 0.06549791 -0.029047469 -0.022821229 0.016281094 0.062212702 -0.032900408
0.12294631 0.09489196 -0.051271055 0.018714394 -0.061513178 -0.09675174 -0.0019804502 -0.0035285058
-0.11361796 -0.0010024414 0.076489784 -0.051045094 -0.016268017 -0.13813831 -0.078539826 0.009096882
0.05577239 -0.052056376 0.07140163 -0.012166033 -0.00484016 0.034916922 -0.033487324 -0.08937571
0.0038728751 -0.05161413 -0.078667626 0.022623202 0.06071057 0.0054845433 -0.02316316 0.03093096
-0.01106002 0.031171903 0.03562997 -0.057874363 -0.0002996505 0.037650395 0.013882923 0.011848023
0.028588733 -0.11194453 0.012586233 -0.032601614 -0.016488098 0.09411655 0.045439936 -0.060916647
0.014329457 -0.00998757 -0.053317305 0.06772783 0.06740249 -0.03452859 0.023680815 0.04583148
0.03474151 -0.0062169475 -0.051096324 0.037387107 -0.029531557 -0.016534079 0.04375507 0.0020796717
0.012606408 0.07884112 0.03171241 0.026501924 0.08551852 0.005758394 -0.032426897 0.06301636
-0.015565535 -0.016379772 -0.042381518 -0.016911602 -0.060994886 -0.09452652 0.081465006 -0.008966472
0.015294103 0.017463824 0.04441049 0.017357461 -0.05933768 -0.08296428 -0.1817606 0.038452584
-0.10140395 -0.118157044 0.07932537 0.1312033 0.044744533 -0.008482987 -0.027476883 -0.08043259
0.07051764 0.027702415 -0.015312633 0.045661695 0.037530273 -0.051507123 -0.021176588 0.047587354
-0.0034274363 0.046067316 -0.01607571 0.012428103 -0.005933253 -0.057868503 0.002265285 -0.03326652
-0.018998204 0.050708167 0.006903013 -0.03668353 0.045920603 -0.031532664 0.022029389 0.038450543
-0.02382345 -0.041711662 -0.022909842 0.05063873 0.06254358 -0.055256553 0.103464015 0.08726257
0.02452379 0.011701768 -0.08239718 -0.10623074 -0.013641023 0.048627913 -0.054384135 0.04223471
0.083442695 -0.033252284 0.027762156 0.01788698 -0.1051146 0.0318895 0.03635506 0.031298842
-0.011607385 0.07270615 -0.028201263 -0.00035858565 -0.06315007 -0.090785325 0.039382316 -0.0718434
-0.06194224 0.0027146756 0.064630054 0.015920218 -0.019261548 0.0045134705 0.031330142 -0.023475552
-0.024862071 -0.022839868 -0.036596432 -0.024151983 -0.016040446 0.008409481 -0.013567663 0.037889577
0.043923624 0.021626158 -0.024010973 0.023564802 0.041632935 -0.0035383725 0.035957076 -0.012006007
-0.075713366 0.03683968 0.0035728402 -0.010477233 0.0076749856 0.077540345 0.04702353 -0.008443743
-0.054700807 -0.10055723 0.03014885 0.0492492 -0.01909913 0.059068874 0.08011683 0.0041081724
0.026125245 -0.0012058573 -0.027582642 0.054695312 -3.6117468e-05 -0.017378809 0.039482407 -0.02488614
-0.0018458919 0.061650775 -0.012561067 -0.12667257 -0.017148517 -0.0676241 -0.10074576 0.088019684
-0.0089220265 0.009210158 -0.03207751 -0.025486005 -0.04276651 0.0036008733 0.09904137 0.022447249
0.09079253 0.023174597 0.00792882 -0.04775604 -0.07915536 -0.056211207 -0.0053527765 0.015793666
-0.076354235 -0.026076423 0.0878289 -0.05862673 -0.06019642 -0.0047408976 -0.01745117 0.0072846944

module.conv4.bias f4 [32]
00000000: 8a61 83bd a859 443c bca0 cd3b ce8e 143b
00000010: 8b8b f0bc d738 c13b aec2 14bb 3b54 bebd
00000020: f731 9e3d 5389 233d b6cc 58bd 5cc0 4d3c
00000030: 66dc 4f3d 8781 2ebd d321 bcbc 8d9e 8abd
00000040: e7b2 63bc 31e5 93bd 3e8a d7bc 4722 aebb
00000050: e22d c1bb ff07 6ebc 30b2 ca3c 11a7 80bd
00000060: a1d2 90bd a2e4 303c 0d05 9f3d a16b 8dbd
00000070: fbd8 04bc c973 bbbd e68b 26bc 4b28 abba
-0.064150885 0.011984266 0.0062752645 0.0022668126 -0.029363414 0.0058966684 -0.0022699046 -0.092934094
0.07724374 0.039925884 -0.052929603 0.012558069 0.050747298 -0.042603996 -0.022965347 -0.067685224
-0.013897634 -0.07221449 -0.026311036 -0.005314145 -0.0058953622 -0.014528274 0.02474317 -0.062818654
-0.07071424 0.010796698 0.07764635 -0.06905294 -0.008108373 -0.09152944 -0.01016519 -0.0013058273

module.fc1.weight f4 [200, 800]
00000000: a912 d6bb 7849 23bd a394 d2bb e6ef 343c
00000010: 6e13 34bc f75f 4cbd 73ad 13bd 574e abbc
00000020: a14a 46bd d70a 9b3c cee1 783c 8d7d c13c
00000030: 4dde bd3c 42d4 fbbc 0638 1cbd cbba a4bc
00000040: 41e0 d63c a41a 983c 2153 06bd 4020 87bc
00000050: bcf6 fdbc 017e be3c 9188 b93c a7ff 11bd
00000060: 9061 44bd 9caf 4dbc a595 873c 1f29 35bd
00000070: 0342 aa3c ae95 f93b 78c5 1cbc e436 23bd
00000080: 9864 00bd 13a1 0dbd 6206 ccbc bc2c 4cbb
00000090: e51d 183b 7a6e bbb9 e030 21bc 30f4 cebc
000000a0: c320 f8bc d506 98bc 6ca8 94bc 5138 44bd
000000b0: bcfe c2bc 9a6f 1f3b 106f dcbc 99b4 8b3c
000000c0: a842 c2bc 4ff9 12bd d2c2 2abd c4cc f3bc
000000d0: 3210 6abd eab6 8dbc 5f0a 29bd dd2f 35bd
000000e0: baa9 363b 78a3 dbbb e1f9 e2bc bb6c c23c
000000f0: a875 cdbb c524 52bb 2e1a 00bd 1de0 0cbd
00000100: ce62 68bc b0bf 09bd d16c 6ebb b3c0 60bd
00000110: f009 9ebb 5168 2abd c21b f83a 1c82 a03b
00000120: ae36 a23c 8a13 0f3c 7ee2 06bd 8888 38bb
00000130: ff83 17bd 5c95 0cbc 4da4 4c3c 3fbf 05bd
00000140: 9590 b6bb a3e3 b9bc feaa 04bc 838b ccbc
00000150: 2de1 78bb 3bda cfba c6df 01bd 342f 35bd
00000160: f0cc 0ebd a028 9f3b a2b8 68bc f982 82bb
00000170: ef12 17bd 98e1 b7bc 7124 dabb 56fe 5cbc
00000180: 993d da3a f3da 0c3c bc87 17bd f67a 813c
00000190: 18d4 5fbc d362 2ebd fca4 d03b 1127 24bd
000001a0: ee43 dbbc bc44 f5bb 2100 17bd 7b36 acbc
000001b0: e66c 62bc fd06 cbbc b1e6 58bc 065f 743c
000001c0: dd3a 48bd c52b b2bc e902 87bc eab8 2e3d
000001d0: e71f dfbc 8904 d9bc 451c ecbb 1b25 b0bc
000001e0: 4a74 16bc c10d 55bd ece8 63bd 0216 633c
000001f0: 29d5 17bd da8d bdbc 241a de3c 9aa4 e23c
00000200: d4a1 2bbd 0a5f 4bbd e2c1 8bbc 805f bebc
00000210: 9029 663b 7fed ca3c 6cfc 6fbc daa6 e8bb
00000220: 6645 3abd e47a 7f3c d5a0 b13a 04b5 9fbc
00000230: 9429 7bbc 0d2b 60bc 0b37 a2ba febe 39bd
00000240: 65a0 00bd b304 a03c 3759 f2bc aef8 1abc
00000250: 5ed3 113c 32e2 cbbc 937b c93a db27 a23b
00000260: 481a dfbc 4080 ddbc 628f 92bc 9737 37bd
00000270: 7262 5cbd f869 973a 780c b53c ef09 b7bc
00000280: f00e afbc b686 41bd 3f5a 14bc d6c7 ba3c
00000290: a4ab 0d3c 22ee 3b3d aac7 e23a 21bb f1bb
000002a0: 4f90 a7ba 1896 ae3c 6aa4 63bc 4e35 6dbd
000002b0: 6245 84bc 78de 05bd 75f0 9cbb 659e 633b
000002c0: 4736 92bc 3f82 b8ba 1bc1 62bd d832 9c3b
000002d0: 2cf7 753c 8bf3 68bd ce53 f1bc b85c 47bd
000002e0: 5d1f 5f3c 7f3a 50bd 417c b4bc 7a38 38bd
000002f0: f1f3 6bbd 2b0e edbb 9c91 283d 1360 80bc
00000300: bd90 e93c 9b80 e4bb 1bae 65bd 2005 7f3c
00000310: 74ee 733c 56df 54bb cbdc ab3c f663 e4bc
00000320: d5d6 57bb a3e2 82bc f950 e0bb bba6 c93c
00000330: 232c c2bb 1007 9cbb 9975 7b3b b804 da3d
00000340: dcc4 1f3d 96aa b63b b92a 163b 22c2 6f3c
00000350: d758 993d 9098 cf3b a40f 00bd b8ba 3ebc
00000360: bc35 9dbb a7d6 a23d 27ed b63d 6844 4c3c
00000370: 7061 dfbb 6871 1b3d 9e71 603d 1a14 c93c
00000380: f410 fcbc 3c6b 10bd 222d ba3c bb4b c83c
00000390: 0558 8e3c 8746 35bc acda 1b3b 662c 703a
000003a0: ae75 37bc 0bba 38bd c4bb 04bd f4df 05bd
000003b0: a188 45bd 6c1a 94bc 7187 57bc 2673 d1bc
000003c0: d6af 70bc a138 bdbc cf65 943b d417 14bc
000003d0: 29c5 c53c d204 9fbc 42fc 61bb d5e7 ac39
000003e0: 9700 b43b 1ae5 04bc f5a3 5dbc 4be6 aabc
000003f0: 0e39 51bc 984f bdbc 4822 1cbd d5f9 bfbb
-0.006532986 -0.039864987 -0.0064264103 0.011043524 -0.0109909605 -0.049896207 -0.036054086 -0.020911379
-0.048411015 0.018926067 0.015190555 0.023619438 0.02317729 -0.03074086 -0.038139366 -0.020108601
0.02622998 0.01856739 -0.03279412 -0.01649487 -0.031001441 0.023253443 0.022648128 -0.0356442
-0.047944605 -0.012554076 0.016550848 -0.04422867 0.02078343 0.00761672 -0.009568565 -0.03984727
-0.031345934 -0.03457744 -0.024905387 -0.0031154593 0.0023211178 -0.0003574973 -0.009838313 -0.025262922
-0.03028906 -0.018557945 -0.018146716 -0.04790527 -0.023803107 0.0024327994 -0.026908427 0.01705389
-0.023713425 -0.03588229 -0.0416897 -0.029760726 -0.05714435 -0.017299134 -0.041269656 -0.0442351
0.002787216 -0.0067028366 -0.027707042 0.023733487 -0.0062701292 -0.0032065373 -0.031274967 -0.03439342
-0.014183713 -0.033630073 -0.0036380778 -0.054871272 -0.004822962 -0.04160339 0.0018929171 0.0048983227
0.019801464 0.008732686 -0.032930844 -0.002815755 -0.036991116 -0.008580532 0.012490344 -0.03265309
-0.0055714347 -0.022691553 -0.008097408 -0.024968868 -0.0037976012 -0.0015857884 -0.031707548 -0.04423447
-0.034863412 0.004857138 -0.014204176 -0.0039828983 -0.03688329 -0.022446439 -0.006657176 -0.013488373
0.0016650438 0.008597123 -0.03699468 0.015805703 -0.013661407 -0.042574715 0.006367324 -0.04007632
-0.02676579 -0.0074850004 -0.036865357 -0.021022072 -0.013819909 -0.024783606 -0.013238595 0.0149152335
-0.04888426 -0.021749387 -0.01648088 0.042656817 -0.027236892 -0.02649142 -0.0072055184 -0.021502068
-0.009182999 -0.05201507 -0.055642053 0.013860228 -0.03706852 -0.02313893 0.027112074 0.027666379
-0.04190238 -0.049651183 -0.017060224 -0.023238897 0.0035119988 0.02477145 -0.014647584 -0.0070999684
-0.04547634 0.015593264 0.001355196 -0.019495495 -0.015329737 -0.013682139 -0.0012376023 -0.04534816
-0.031402964 0.01953349 -0.029583557 -0.009458704 0.0089004915 -0.024888132 0.0015371911 0.004948599
-0.027234212 -0.027038693 -0.017890636 -0.04473075 -0.053804822 0.0011551967 0.022100672 -0.022343604
-0.021369427 -0.04724761 -0.0090547195 0.022800367 0.008646879 0.045881398 0.0017301936 -0.007377044
-0.0012784096 0.021311805 -0.01389418 -0.057912163 -0.016146366 -0.032682866 -0.004789407 0.0034731862
-0.017848147 -0.0014076902 -0.05535994 0.0047668032 0.015012544 -0.056872886 -0.029458907 -0.048672408
0.013618317 -0.050837036 -0.022031905 -0.044975735 -0.057605688 -0.007234355 0.04115449 -0.015670812
0.0285114 -0.006973339 -0.056074243 0.015565187 0.014888395 -0.0032481751 0.020979306 -0.027879696
-0.0032934446 -0.01597721 -0.00684559 0.024615636 -0.0059256717 -0.004761584 0.0038369654 0.10645431
0.0390061 0.0055745346 0.0022913648 0.014633687 0.07487648 0.0063353255 -0.031264916 -0.011641197
-0.0047976654 0.07951098 0.08931952 0.012467481 -0.0068170354 0.03794995 0.054795854 0.024545718
-0.030769803 -0.035258517 0.0227266 0.024450174 0.017375955 -0.011064178 0.0023781462 0.00091618893
-0.011197491 -0.0450993 -0.03240563 -0.03268428 -0.048226003 -0.018079005 -0.01315485 -0.025567602
-0.01469036 -0.023098292 0.004528738 -0.009038884 0.024141865 -0.019411478 -0.0034482633 0.00032979125
0.0054932344 -0.008111263 -0.01352786 -0.020861765 -0.012769951 -0.023109242 -0.03811863 -0.0058586397

module.fc1.bias f4 [200]
00000000: 710e 64bc 00b2 813c 7e65 18bd 83f9 24bd
00000010: 39c5 863c 0c17 803b b5fc fe3c 0624 e53c
00000020: 3062 adbb f92c 3aba c25d 593b f4bf d8ba
00000030: 3c89 513d 5081 3e3c 57f3 5cbc 03b2 63bc
00000040: f61c 06bb b36c 233c 343f 013d 4239 e0bc
00000050: 3df0 1bbc 15da d8bc e388 9f3c 1c89 9ebc
00000060: 78fa ce3c ef03 14bd 5f85 91bc c4da 933c
00000070: aecb 00bd c598 493d d932 9c3c c890 c63c
00000080: fa2c f3bc 35f0 c23c 1228 983d 0a5a 61bd
00000090: 49c2 4a3d bb3c 833c 1ff3 fbbc 6309 ba3c
000000a0: f7e0 2a3c d226 903d 99c1 6cbd 3b24 acbc
000000b0: 7d15 683c e863 8d3d 26d3 5cbc 6945 3d3d
000000c0: e38a 02bd 1025 e3bb 959e 583d 7d15 35bd
000000d0: b6a5 b2bc ea88 97bc 6269 55bc 1b23 8fbc
000000e0: 4bca 153d 4416 63ba 6f5d 2ebd 8bcb e33a
000000f0: 1f1e 063d f676 69bd 2521 1bbd a701 af3b
00000100: ca41 0cbd c7ca 6fbd 878a 433c 907a f2ba
00000110: 399c 203d a800 743c 9530 343d bce9 ddbc
00000120: a7f7 90bc 299d 753d 3b07 ed3b 4a89 8a3d
00000130: 570b abbc 21ab 763d 874b ab3c 8b6d 08bc
00000140: 0750 9c3d cfcb dd3c 0919 313c 3439 a23b
00000150: e570 413d fb1f 1e3b de21 ec3c 3406 90bc
00000160: 438c 4fbb 950f 14bc 650d 313c 8030 c03d
00000170: ec34 cabc 6c34 28bd 01a7 69bc 5010 c73c
00000180: 6418 743b 1acf 663c bf49 f93c eb2e db3c
00000190: 2f83 fe3c ec97 983c 1b93 483d 5e7b 423d
000001a0: a64d bbbb 35bc f8bc 3250 813d 710f 033a
000001b0: 2a72 763c 32a0 bbbc 647b 873d 4744 b7bc
000001c0: 2cf3 663b 6d51 0b3d 3ae1 c53c d1da 44bb
000001d0: 9efd 3e3d eb0c 183d 85e9 1a3c b602 edbb
000001e0: 7b89 633d 4079 c4bc 9bb6 2f3c bca2 033d
000001f0: 796d 613d 30ad 45bd e2e0 d83c ab25 463c
00000200: 7e88 ddbb a669 29bd c9e3 32bb 772e 2b3b
00000210: fde6 083d a939 07bc 34a9 9cbc fba0 0739
00000220: 306c 4ebd 2cff afbc ca1a e33c 0a7d 293d
00000230: ebb4 00bd 2314 0a3d 205d 033c 46df 823d
00000240: 5082 1c3c 2dea 3c3d 6016 d3bc f0af 10bc
00000250: 17db 9b3d cbc7 e73c 4cea 003b 84c6 133c
00000260: a21b 833d c0c1 c13c 15d9 21bd e473 143c
00000270: af49 633d 53fb ca3c cd9d 2ebc a7d7 183d
00000280: 50a6 903d 7562 d83c 0137 be3c e54f 973c
00000290: 9e60 663d e328 073d a7b1 643b 58f4 5b3d
000002a0: 6d59 87bc 916b 3abd 3583 9f3c fe39 cfbc
000002b0: 7704 d5bc 40fc d73c 8254 0cbb 12e1 5d3d
000002c0: ed59 b03d 0334 25bd da61 4fbc a596 d73c
000002d0: 412e 4a3d 0944 633d b64d 7ebc f1f3 e6bc
000002e0: 374a ddbc 72a5 263d 0fad 053d eda0 943c
000002f0: 5ffc 1abd a31c ea3b 81ff 16bc c36c 3e3c
00000300: c8d9 413d baef 973d 135b 813d c3ed 89bc
00000310: 5849 27bd 125a 963c e589 a03d 38db e63c
-0.013919459 0.015831947 -0.037206165 -0.040277015 0.016451465 0.0039089974 0.03112636 0.027971279
-0.005291246 -0.00071020384 0.0033167456 -0.0016536699 0.051156268 0.01162751 -0.013485751 -0.013897422
-0.002046404 0.009974646 0.031554416 -0.027371053 -0.0095177265 -0.026471177 0.019474452 -0.019352488
0.025265917 -0.036136564 -0.017763792 0.018048652 -0.031444244 0.049217958 0.019067215 0.024238959
-0.029684532 0.02379618 0.07429518 -0.05501751 0.04950169 0.01602017 -0.030755578 0.022709554
0.010429612 0.070386544 -0.057801817 -0.02101337 0.014165279 0.06903821 -0.013478076 0.046208773
-0.031870734 -0.0069319084 0.05288561 -0.044209946 -0.021807533 -0.018497903 -0.0130256135 -0.017472794
0.036569875 -0.00086626806 -0.042569574 0.0017379386 0.03274357 -0.056998216 -0.037873406 0.005340773
-0.03424243 -0.058542993 0.011934883 -0.0018499661 0.039211486 0.014892735 0.043991644 -0.027088992
-0.017696215 0.059964333 0.007233528 0.06764467 -0.02087943 0.060221795 0.020910038 -0.008326898
0.076324515 0.027074723 0.0108091915 0.004950667 0.047226805 0.0024127949 0.028824743 -0.017581083
-0.0031669296 -0.009036918 0.010806416 0.09384251 -0.024683438 -0.04106562 -0.014261008 0.02429977
0.0037245983 0.014087463 0.030430673 0.02675577 0.031068413 0.01862713 0.048968416 0.047480933
-0.0057160435 -0.030363182 0.06314124 0.00049995544 0.015041867 -0.022903536 0.06615332 -0.022371424
0.0035240157 0.0340132 0.024155248 -0.0030037651 0.046628587 0.037121695 0.009455089 -0.007232989
0.055551033 -0.023983598 0.010724689 0.032137617 0.055036042 -0.048260868 0.02647442 0.012093942
-0.006760656 -0.04136052 -0.0027296415 0.0026120225 0.033423413 -0.008253493 -0.019123651 0.00012934573
-0.050396144 -0.02148398 0.027722735 0.041379012 -0.031422537 0.03371061 0.008017808 0.06390242
0.009552553 0.046121765 -0.025767505 -0.008831009 0.076101474 0.02829351 0.0019670902 0.009019498
0.06401755 0.023651958 -0.039513666 0.009060834 0.055490192 0.024778044 -0.01065774 0.037315037
0.070629716 0.026414135 0.023219587 0.018470714 0.056244485 0.032997977 0.0034895928 0.05369982
-0.016522134 -0.04551274 0.019471744 -0.025296208 -0.026003106 0.0263654 -0.0021412675 0.054169722
0.08610902 -0.040332805 -0.012657607 0.02631695 0.049360517 0.055484805 -0.015521457 -0.028192492
-0.027012927 0.040685125 0.032635745 0.018143142 -0.037838336 0.007144527 -0.00921619 0.0116226105
0.047326833 0.07418771 0.06316199 -0.016837006 -0.04084143 0.018353496 0.07838801 0.028180704

module.fc2.weight f4 [150, 200]
00000000: 753d 843d 3358 383c 1dc1 2f3d 1f66 5abd
00000010: b154 083d 3a97 51bd a45c 62bd e863 823d
00000020: 1eb8 673d 9d8c 2fbd 4519 433d 9444 b5bc
00000030: 55ac 783d 7cee 26bd ec64 d63c 77d4 1c3d
00000040: 7282 ab3c d8cd 7abd 7b61 41bd b8e7 723d
00000050: f49d 263d 414e 8dbc b04f 27bd 4acf 77bc
00000060: de3f 343d 4944 2dbc b4cc dfbc 7896 943d
00000070: 8f3e 7d3d e3c9 13be e42f 493d bed5 523d
00000080: 1609 f23c 453d 663d ef55 4bbd b7b1 c23d
00000090: c334 e4bc 9694 7bbd ce60 343d 1d43 6a3d
000000a0: c13e 663d 98f4 893d 5fc8 8b3c 50e0 ea3c
000000b0: a5c6 52bd 65f2 563d 654c d83b 9964 28bd
000000c0: ba33 e53c 6e2d 48bc 6e76 2abc fd63 08bd
000000d0: 5ce5 7bbd 69ad 66bd 0b4b 593d e06b 9fbc
000000e0: 58a8 edbc 12d4 3e3c 5426 07bd f6ec 09bd
000000f0: d9ab 353d 3d4d 77bc 2158 183e ac3a f7bc
00000100: 619c 0cbc e602 423c 4fac beb8 d9f2 7c3d
00000110: 524f 3f3d 6987 16bd 4943 633d 3bd9 49bd
00000120: 1476 76bd 68dd d23d 58ae a63c a7ea 903d
00000130: e789 323d bed1 94bc 95ad 3c3d ec3d 6dbd
00000140: d574 ca3c 2e22 943c 4f5b b53c a846 97bc
00000150: 9b8c 07bc bed1 903c 4ba1 60bd db65 83bd
00000160: d897 163d e44f 893d 5826 38bc 0ee8 8fbd
00000170: ee31 30bc 71b6 5ebc 938e 75bd ec1e 493d
00000180: 97e2 2a3d 0b1f 32bc 341b c0bc 5f3d 21bc
00000190: 8684 4bbd 2e07 4abb c17c 25bd e1e9 e73b
000001a0: 2d49 29bd 50fc b33a 62bf 98bd 509a 3bbd
000001b0: 4f02 50bc c32b 80bd a2aa 743d c391 5abd
000001c0: dbd2 e13c 6d63 16bd f4b3 88bc f63b f4bc
000001d0: 1446 14bc c964 a0bd 9d14 0ebd b80a 81bd
000001e0: 2cfd 473d 7d3a b2ba 9e7c 863c d7a2 353d
000001f0: 74c8 a7bb fd74 87bd 0ea0 5a3c 5dbf b4bc
00000200: 165b 8a3d 3d54 86bc 05df 83bc 2d2f 60bd
00000210: a2c8 ed3c 50d8 41bd 3690 6e3d 7f9c a33d
00000220: fa00 493d d844 af3c a54a 53bd 5340 ddbd
00000230: ce35 da3a f784 a03c b14f b4bd 43c6 c8bc
00000240: 3b03 4abd acb6 79bd 5d05 4bbc 8b79 38bd
00000250: 6406 813d 724a a23d 3be0 8e3d 2b51 26bd
00000260: 8511 cfbc 17bb 32bd b5fe 9abc 4497 913c
00000270: 52ec a3bd 67fc 893c e89a bcbc fd98 963d
00000280: 8f3b 8abd ca4c 763c 8553 0fbd 1a7d 283c
00000290: ade1 4c3d 3668 0d3d 1220 1fba e01e 7a3c
000002a0: a1f9 a93c 7da3 0abd 7df2 7abc 9169 2fb9
000002b0: c27b d23b e4ce fb3c 754d ebbd 4273 aa3c
000002c0: 4e27 d13c 16f8 83bc 5cfd 88bd 5343 42bb
000002d0: dd71 11bc f959 213d b1ff 343c f6fd 0d3d
000002e0: f6f3 41bd b537 abbd a2c8 22bd ccac 4dbc
000002f0: 1930 2e3d 2694 9f3d 342a c23c 45c5 1a3d
00000300: 7daf c53c 0d70 913d 928c 6abd 9d47 4cbd
00000310: 5e26 c2bc 517b 4abd 24fb 803d edf1 d0bc
00000320: dd2c 763c 3680 543c 9b69 843d 9001 233c
00000330: c681 4bbb cecc 603b 969e 493c 9279 2dbd
00000340: 8a70 f93b 3788 283d e33d 6dbd 7cf0 08bc
00000350: d1f0 3bbd 74e4 a1bd b3b8 c13c d901 273d
00000360: e020 943c 032f b5bc 93d8 10bd 762c 38bc
00000370: 8c66 e03c ac6d 1abd 6904 c23c 237a 933d
00000380: 9bc7 a2bd 3fb6 3ebd f276 00bd f85c 23bb
00000390: 6acc 923d 31a4 3fbd e445 75bc fbd0 3dbd
000003a0: 33ce b53d 6840 8bbb d3e4 71bd d5cc 8d3a
000003b0: 4881 d1bb e776 5c3d 8527 b0bd fcf4 e6bc
000003c0: 90e8 343d c3f0 763d 37e5 abbc 6c8a 65bd
000003d0: 52ea 863d 2d3a f3bc 256d 01bd a939 22bc
000003e0: 4de9 ecbb 3be2 9a3c 37fc 4abd c131 d1bc
000003f0: e5c5 78bd 951c a23d 920f 8d3d b402 15bd
0.064570345 0.011251497 0.042908777 -0.053320047 0.033283893 -0.05116961 -0.05526413 0.06366712
0.056572072 -0.04285871 0.04763152 -0.022127427 0.060711224 -0.04075478 0.02617117 0.03828856
0.020936225 -0.061231464 -0.047212105 0.059303015 0.04067798 -0.017249228 -0.04084748 -0.015125105
0.04400622 -0.0105753625 -0.02731929 0.07255262 0.06182724 -0.14432482 0.049117938 0.05147337
0.029545348 0.056210775 -0.0496425 0.09506553 -0.02785719 -0.061421 0.044037633 0.05719291
0.05621219 0.06736106 0.017063318 0.028671414 -0.051458973 0.05247726 0.006600904 -0.041111562
0.027978767 -0.0122178625 -0.010404212 -0.03329848 -0.06149803 -0.05631772 0.053050082 -0.019460618
-0.029010937 0.011647241 -0.032995537 -0.03367325 0.04435334 -0.015094099 0.14877369 -0.030179344
-0.0085822055 0.011841511 -9.092001e-05 0.061755035 0.046706505 -0.03675023 0.05548409 -0.049279433
-0.0601712 0.10296136 0.020346805 0.070760064 0.043588545 -0.01816642 0.04606398 -0.05792038
0.024713913 0.018082704 0.022138266 -0.018466309 -0.008273269 0.017678138 -0.05484132 -0.06415912
0.036765903 0.06704691 -0.011239611 -0.07026683 -0.010754092 -0.013593302 -0.059950422 0.049101755
0.04172 -0.010871659 -0.023450471 -0.009841292 -0.04968693 -0.0030827033 -0.040402178 0.007077441
-0.04132955 0.0013731811 -0.074583784 -0.04580146 -0.012695863 -0.06258347 0.05973304 -0.053361665
0.027566364 -0.036715914 -0.01668737 -0.029813748 -0.009049911 -0.07831723 -0.034687627 -0.063008726
0.048825428 -0.0013597753 0.016416844 0.04434475 -0.0051203314 -0.066141106 0.013343824 -0.022063905
0.067556545 -0.01639759 -0.016097555 -0.05473249 0.029026333 -0.047325432 0.058243 0.07988834
0.049073197 0.021395132 -0.05158486 -0.108032845 0.0016648115 0.019594653 -0.088042624 -0.024508601
-0.049319487 -0.060965225 -0.012391415 -0.045037787 0.06300047 0.079243556 0.06976362 -0.04060475
-0.025276909 -0.043635454 -0.018920282 0.017772324 -0.08004059 0.016843988 -0.023023084 0.07353399
-0.06749641 0.015032956 -0.03499176 0.010283733 0.05001991 0.03452321 -0.00060701475 0.01526615
0.020748915 -0.03384732 -0.015316603 -0.00016728627 0.0064234445 0.030738302 -0.11489383 0.020806912
0.025531437 -0.016109508 -0.066889495 -0.002964218 -0.008877245 0.039392445 0.01104729 0.034666024
-0.0473518 -0.08360235 -0.03974212 -0.012553405 0.04252634 0.07791929 0.023701765 0.037785787
0.02413153 0.0710145 -0.057262965 -0.049872983 -0.023699936 -0.04943401 0.06297901 -0.025505984
0.015025345 0.012970021 0.06465455 0.009949103 -0.0031052693 0.003430176 0.012305876 -0.042352267
0.0076122927 0.04114553 -0.057920348 -0.008358117 -0.045883957 -0.07904902 0.023647642 0.040773246
0.018082082 -0.022117143 -0.03536279 -0.011241069 0.027392648 -0.037702248 0.023683744 0.0720103
-0.07948228 -0.046560522 -0.031363435 -0.002492724 0.07167895 -0.046787445 -0.0149702765 -0.046341877
0.0887722 -0.004249621 -0.059056114 0.0010818491 -0.0063935854 0.05382433 -0.08601288 -0.02819299
0.0441671 0.060288202 -0.020983322 -0.056040213 0.06587662 -0.029690826 -0.03159823 -0.009901443
-0.00722996 0.018906703 -0.049556937 -0.02553642 -0.060735602 0.07915608 0.068877354 -0.03637953

module.fc2.bias f4 [150]
00000000: 8f5d bc3c cb73 743d 84bc babc b21c 693d
00000010: 63ac 9bbd 1dbd 1abd 2c6c 7c3d ed7a 043d
00000020: cb02 9e3c a29b fb3c 3abe ce3b 525e 89bb
00000030: d046 6c3d 5de5 c73c c438 983c 9202 b03d
00000040: a9f7 20bd dffd 9e3c 3616 af3c 8aa4 08bd
00000050: 4380 a73c 02a8 32bc c111 2fbd c104 8abc
00000060: 70ba 5d3b bd9a 9c3d 9768 82bb 9d9c 903c
00000070: 8f3d ddbd c09b 98bd 66e4 b03d 0fe6 65bd
00000080: 03a2 843d 9944 d13b 556f 6cbc 8735 543d
00000090: 8582 893b 0c8c 873d ce1b dcbd 40af a7bd
000000a0: d3ef 8fbd 6509 ea3c 1da2 6fbb 5b18 77bb
000000b0: 2cb3 b73c fc9d 973d 21e5 73ba 53a5 c53d
000000c0: fdc4 b2bd 7b00 04bd 45c7 5b3d 28b8 a3bd
000000d0: c2b4 94bd e66c 603d 96eb 433d 5c1a b83c
000000e0: c0a5 033b 5ce4 c0bc 595c 0abc 3f23 16bc
000000f0: 4333 563c 2367 83bd b8ef 1f3c e711 9b3c
00000100: 195c 1a3d 389a b13d ce37 a3bc 332e 19bd
00000110: f7ef 93bc ba93 993d c002 43b9 d4e7 053d
00000120: 2b89 4b3c a5ba 52bc 72fe 00bd 0b50 23bc
00000130: afd7 3e3d cf92 dd3d b549 053c dc24 a23d
00000140: 0d41 923d 6254 383d a262 9c3d d6f5 9d3c
00000150: 008d 41bd 06ac d03b f26c a53d bd4e 7f3d
00000160: 4ee7 28bd fc00 8fbd ef89 6e3c 1d8d b83c
00000170: ca94 353d d480 4e3d 8fdf ad3d 1112 4d3c
00000180: 9789 b9bb 914e 27bc 64ec 523d 4eaa 823c
00000190: 5e72 c63d b52a 9ebc 18f9 3abc 0170 023d
000001a0: 30aa 93bd 69aa 1f3d eee1 58bc a665 17bd
000001b0: 4226 833c ea8a a73c 63cd adbc 4820 65bc
000001c0: e88f 8b3b 72fc 82bc 3234 ca3c dec7 b23d
000001d0: a9ef 643d 3913 8c3b 24be 963d f0c9 a53c
000001e0: bf1a 3ebb 9e13 adbc 7461 48bb b77a bbbd
000001f0: b9bf 97bc 1ba7 b1bc 9120 843d 597b 913c
00000200: e933 9bbd 788a 833c d6de 393d acf4 8f3d
00000210: 487e 823c 7024 133c bcd9 45bc 5c5e 623d
00000220: 9333 0abd f22a 1b3d 8626 a23d d0b8 cd3c
00000230: 0f9b b63d 2920 413c 3635 1f3d 2684 cfbc
00000240: c984 983d 4c8a ea3c 24a5 723c 226e e4bc
00000250: 5455 863d dca3 093d
0.022993831 0.05968074 -0.02279497 0.05691213 -0.076012395 -0.03777801 0.0616266 0.032343794
0.019288441 0.03071386 0.006309298 -0.004192152 0.05768472 0.024401361 0.018581755 0.0859424
-0.039298687 0.019408165 0.021372896 -0.03336004 0.020446902 -0.010904314 -0.04274154 -0.01684797
0.003383305 0.076467015 -0.0039797532 0.017652804 -0.10802757 -0.07451582 0.086373135 -0.056127604
0.06476214 0.0063863513 -0.0144308405 0.05180886 0.0041964673 0.06618509 -0.10747491 -0.08187723
-0.07028165 0.028568933 -0.0036565133 -0.0037703726 0.022424303 0.0740318 -0.0009303857 0.09650674
-0.08728979 -0.03222702 0.053656835 -0.079941094 -0.07261039 0.054791354 0.047832094 0.022473507
0.0020087808 -0.02354639 -0.008444869 -0.009163677 0.013073745 -0.06416156 0.009761743 0.018929435
0.037685487 0.08671993 -0.01992407 -0.037397575 -0.01805876 0.0749888 -0.00018597674 0.03269179
0.01242284 -0.012861882 -0.031492658 -0.009967814 0.04659241 0.10819017 0.008135249 0.079171866
0.07141314 0.04500235 0.07636 0.019282263 -0.04725361 0.006368163 0.0807742 0.06233095
-0.041236214 -0.0698261 0.014559253 0.022528226 0.04433135 0.05041583 0.08489906 0.012516514
-0.005662154 -0.010211603 0.05149497 0.015950348 0.096897826 -0.019307474 -0.011411928 0.031845096
-0.07210195 0.038980875 -0.01323746 -0.036962174 0.016009454 0.020451982 -0.0212161 -0.013984747
0.0042590983 -0.015989516 0.024683092 0.08729528 0.05589262 0.0042747525 0.07360485 0.020237893
-0.002900764 -0.021127518 -0.0030575665 -0.091542654 -0.018524038 -0.021686127 0.06451524 0.017759012
-0.075782605 0.016057238 0.04537853 0.07029089 0.015929356 0.008980855 -0.012075838 0.05526577
-0.03374059 0.037882753 0.07917504 0.02511254 0.08916294 0.011787453 0.038869105 -0.025331568
0.07447202 0.028630398 0.01480988 -0.027884547 0.06559244 0.033603534
